DQN_model.pth (torch, 79527 bytes, 6 tensors)

layer1.weight f4 [128, 11]
0.06714306 -0.3853016 -0.38256556 0.12512489 -0.08415941 0.4730729 0.010346244 0.22858654
-0.2632637 -0.23552467 -0.25929075 -0.17417951 0.3185252 0.3385944 0.38078898 0.32034594
0.07161417 -0.62338257 -0.6222652 -0.4156288 0.3129119 0.074350804 -0.3414378 0.28795645
0.28285804 0.045656424 -0.009272955 0.024983961 0.01746408 -0.107804514 -0.2681369 0.102541484
0.20735464 -0.29777482 0.15040727 0.04541043 -0.3504227 0.0072427616 0.38853514 -0.3016228
-0.26587293 0.35294366 0.5301079 0.2760544 -0.43153822 0.12147654 0.008623182 0.029371608
-0.087372705 -0.023342371 -0.0062309047 -0.043587416 -0.095427506 -0.068078496 0.24990857 -0.16018221
0.08912202 0.18274806 -0.06550233 0.12086481 -0.3979615 -0.2236752 0.09804206 0.1919846
0.20245004 0.02504924 -0.12514792 0.36298108 -0.016772795 0.22327316 -0.17845999 0.055888526
0.43076003 0.42159832 0.027990995 -0.032521557 0.24846302 0.2839224 -0.09725708 0.25352964
0.014372821 -0.063350916 -0.13266261 0.0756537 -0.25644875 0.08704522 0.08709908 0.1916466
0.17066556 -0.048453838 -0.180953 -0.091306575 0.2075403 0.2234861 0.19051969 0.2636389
-0.29343385 -0.28178132 0.15793817 -0.024594005 0.2974064 0.26370686 0.25775632 0.2194609
0.123310015 0.02317237 0.26388046 0.096036956 0.23056017 0.18468665 -0.31176063 0.0920945
-0.24797286 -0.32438663 -0.26121548 0.14129822 -0.29238898 -0.19286448 -0.31070378 0.22812934
0.123154715 -0.45108393 -0.054468174 0.06867708 0.22756915 -0.17366694 0.18230575 -0.0064511076
0.083601356 0.13338552 0.21327323 -0.041042823 -0.07944939 -0.0033331886 -0.5380524 -0.56592274
-0.33313262 0.17415313 0.0056084115 0.33799538 0.20546274 -0.30259353 0.1950873 -0.5015777
0.30041188 0.1631819 0.242251 -0.009000977 0.20157799 0.11218164 0.30044615 0.23752661
-0.0064255707 -0.16540995 -0.497299 0.08175478 -0.03588879 0.012551801 0.29584995 0.08937851
0.10746124 0.13758317 0.20349337 -0.14009272 0.11398663 -0.07852709 0.058376215 0.3325584
-0.030345235 0.28391555 -0.20865485 -0.33685315 -0.1202707 -0.048366208 0.12769663 -0.1458818
-0.11962504 0.19904195 0.13951136 0.11037597 0.29128245 0.3827235 0.015918437 0.28071818
0.016362803 0.08622496 -0.05824936 0.052492637 0.2840987 0.24252489 0.10053973 -0.11324877
0.24813648 0.03343119 0.03625414 -0.2955478 0.06414484 0.051668163 -0.22921987 0.10284385
0.271718 0.05659761 -0.21463756 -0.13528194 0.09325036 0.08314056 -0.1322042 -0.538289
-0.74042386 0.14877364 0.3097537 0.1628548 0.41167623 0.2776743 0.20502919 0.041687932
0.20288274 0.29512694 0.20795555 0.27841902 0.3478483 0.14553627 0.025634343 -0.091704085
0.21962124 0.12776689 -0.08915129 0.40870175 0.104128174 -0.099929444 0.23084804 -0.12688363
0.5220776 0.16238183 -0.04000503 0.23383807 0.15930398 -0.22633992 0.1488742 0.40365282
-0.12647747 -0.04870741 0.41248772 0.33490905 -0.29588094 -0.12805331 0.25272417 -0.1923824
-0.17899159 -0.42347014 0.2555841 0.23154093 -0.47621885 -0.5277344 -0.05815707 0.056118988
00000000: 4d82 893d 4046 c5be a2df c3be bd20 003e
00000010: c55b acbd 9c36 f23e 4b83 293c 9712 6a3e
00000020: 80ca 86be 612d 71be c2c1 84be 1d5c 32be
00000030: bc15 a33e 3f5c ad3e c6f6 c23e 6204 a43e
00000040: 73aa 923d 0096 1fbf c64c 1fbf 4ccd d4be
00000050: fd35 a03e 3c45 983d efd0 aebe 076f 933e
00000060: c5d2 903e 3b02 3b3d 98ed 17bc 2aab cc3c
00000070: d510 8f3c 9dc8 dcbd 3d49 89be 4501 d23d
00000080: c654 543e f175 98be 5d04 1a3e 4900 3a3d
00000090: 9b6a b3be b054 ed3b 14ee c63e 4e6e 9abe
000000a0: 7f20 88be 08b5 b43e 27b5 073f 0157 8d3e
000000b0: 94f2 dcbe b1c8 f83d 3f48 0d3c ba9c f03c
000000c0: 76f0 b2bd 8038 bfbc 9e2c ccbb b888 32bd
000000d0: 7f6f c3bd bd6c 8bbd 08e8 7f3e ce06 24be
000000e0: 9b85 b63d 4f22 3b3e 1626 86bd f887 f73d
000000f0: 9cc1 cbbe 1d0b 65be 47ca c83d 9c97 443e
00000100: 104f 4f3e 1034 cd3c c726 00be a8d8 b93e
00000110: 1a67 89bc b8a1 643e 37be 36be 5eeb 643d
00000120: 948c dc3e bcdb d73e 5f4d e53c 5335 05bd
00000130: 176d 7e3e 475e 913e b82e c7bd a3ce 813e
00000140: fb7b 6b3c 20be 81bd b5d8 07be 54f0 9a3d
00000150: 404d 83be c444 b23d 0161 b23d 023f 443e
00000160: f4c2 2e3e 8877 46bd be4b 39be f1fe babd
00000170: 7285 543e 8ad9 643e 9817 433e aefb 863e
00000180: f63c 96be a445 90be 8bba 213e 5e79 c9bc
00000190: a745 983e 9604 873e a3f8 833e 5cba 603e
000001a0: f689 fc3d fbd3 bd3c 571b 873e 06af c43d
000001b0: f717 6c3e 7f1e 3d3e 179f 9fbe 0b9c bc3d
000001c0: 99ec 7dbe 0116 a6be 09be 85be 7bb0 103e
000001d0: 02b4 95be 447e 45be 9114 9fbe bd9a 693e
000001e0: 8a38 fc3d 79f4 e6be 051a 5fbd 92a6 8c3d
000001f0: e307 693e bfd5 31be 5cae 3a3e d063 d3bb
00000200: 3037 ab3d 3796 083e 4c64 5a3e 851c 28bd
00000210: 5db6 a2bd a071 5abb cdbd 09bf 50e0 10bf
00000220: 5c90 aabe 3355 323e c4c6 b73b bb0d ad3e
00000230: d364 523e 8aed 9abe f7c4 473e 6567 00bf
00000240: 96cf 993e 2819 273e a510 783e d578 13bc
00000250: 766a 4e3e 7dbf e53d 14d4 993e 2d3a 733e
00000260: 988d d2bb 3a61 29be f99d febe 0d6f a73d
00000270: 2000 13bd 12a6 4d3c a579 973e 150c b73d
00000280: a314 dc3d 9ae2 0c3e 9160 503e 7774 0fbe
00000290: d371 e93d d0d2 a0bd e61b 6f3d 1845 aa3e
000002a0: 9296 f8bc 615d 913e 9ea9 55be 0478 acbe
000002b0: 7c50 f6bd a51b 46bd e8c2 023e 0a62 15be
000002c0: f9fd f4bd a7d1 4b3e 11dc 0e3e cc0c e23d
000002d0: f922 953e 56f4 c33e 6267 823c 4bba 8f3e
000002e0: 490b 863c b696 b03d e296 6ebd 8502 573d
000002f0: 6375 913e 7258 783e c6e7 cd3d f9ee e7bd
00000300: 7d17 7e3e 25ef 083d 397f 143d 0b52 97be
00000310: 5f5e 833d ffa1 533d 9db8 6abe cc9f d23d
00000320: 9f1e 8b3e e5d2 673d f3c9 5bbe 5987 0abe
00000330: 0bfa be3d 9945 aa3d 8a60 07be 4fcd 09bf
00000340: 6b8c 3dbf 1e58 183e 0998 9e3e 69c3 263e
00000350: 3ac7 d23e 532b 8e3e 2cf3 513e f7c0 2a3d
00000360: 7ec0 4f3e e11a 973e 4df2 543e f08c 8e3e
00000370: 2c19 b23e 7607 153e 1dff d13c 5acf bbbd
00000380: 64e4 603e 53d5 023e f494 b6bd 5b41 d13e
00000390: 2741 d53d cfa7 ccbd 6e63 6c3e c8ed 01be
000003a0: e1a6 053f 6c47 263e 50dc 23bd 3f73 6f3e
000003b0: 9520 233e a7c5 67be 7a72 183e 95ab ce3e
000003c0: 4f83 01be 6c81 47bd 9731 d33e 3379 ab3e
000003d0: b57d 97be 6820 03be 1065 813e e4ff 44be
000003e0: 9249 37be 14d1 d8be ebdb 823e 1119 6d3e
000003f0: f5d2 f3be 9a19 07bf 1c36 6ebd 06dd 653d

layer1.bias f4 [128]
0.17211926 -0.078953706 0.0070731645 -0.17415835 0.5162706 0.3232901 -0.15943906 -0.072781526
-0.29154718 -0.18044339 -0.116149545 0.4939377 0.062367488 0.33522096 0.4953285 -0.030052163
-0.26239553 -0.009364584 -0.094020896 0.0021487433 -0.18130039 -0.047527716 -0.1843941 0.4896866
0.017401831 -0.19059724 0.39830226 -0.12841137 0.27774295 0.40911105 -0.16860229 -0.22457807
-0.2665694 0.0071405903 0.16369385 -0.07617797 -0.10819658 0.2874109 -0.24373616 0.48001814
-0.44019964 -0.30468166 0.5135516 0.25117722 0.4965407 0.46047494 0.019448226 0.16951896
0.18334666 -0.056006987 0.46364102 0.33856267 0.24304555 0.07831069 0.5359353 0.22301142
0.02508403 0.47102955 0.16749528 0.037252925 0.07733408 0.4795465 0.34748694 0.16964814
0.44022992 0.107283264 0.47221327 0.35430908 -0.19971682 -0.036455765 0.39295277 -0.039729923
-0.03965883 -0.21379125 0.44464326 0.076977514 0.08921667 0.46925393 0.50846547 0.23334152
-0.18511422 0.07600493 0.2622099 0.26993325 -0.32118857 0.4928861 -0.10946739 -0.057558995
0.120616615 -0.003167871 -0.36853623 0.17055978 0.1683277 0.07007715 0.17088984 0.48016435
0.1869356 -0.39360705 0.25854743 -0.17475343 0.5112172 0.15748936 0.022793567 0.2607378
0.08497557 0.19338529 0.26795837 0.25047705 0.18978944 0.2331143 -0.037598033 -0.27987742
0.5346415 0.3030547 0.38172746 0.17459223 0.1538417 0.21196695 0.3245911 -0.22509797
0.24788944 0.2327059 -0.079424314 -0.25839907 0.13495469 0.15522678 -0.0028754694 0.36764726
00000000: 0840 303e 7bb2 a1bd 01c6 e73b 9156 32be
00000010: 4f2a 043f 4886 a53e fe43 23be 7b0e 95bd
00000020: ac45 95be 27c6 38be d0df edbd 67e5 fc3e
00000030: 0d75 7f3d 15a2 ab3e b29b fd3e f42f f6bc
00000040: b558 86be ea6d 19bc 078e c0bd eed1 0c3b
00000050: cfa6 39be 6cac 42bd cfd1 3cbe 34b8 fa3e
00000060: 498e 8e3c ec2b 43be 46ee cb3e 457e 03be
00000070: 5334 8e3e 0177 d13e 14a6 2cbe cbf7 65be
00000080: c97b 88be 9dfb e93b 5c9f 273e 3203 9cbd
00000090: 2b96 ddbd 8627 933e f995 79be f0c4 f53e
000000a0: d961 e1be 3cff 9bbe 1e78 033f 4d9a 803e
000000b0: 953a fe3e 5fc3 eb3e e351 9f3c 6196 2d3e
000000c0: 3abf 3b3e 9567 65bd 5b62 ed3e 1658 ad3e
000000d0: efe0 783e 5b61 a03d 0e33 093f 1b5d 643e
000000e0: 067d cd3c c92a f13e e283 2b3e 8696 183d
000000f0: 5561 9e3d 1e87 f53e cfe9 b13e 3eb8 2d3e
00000100: d165 e13e 54b7 db3d f0c5 f13e 0068 b53e
00000110: 9182 4cbe a452 15bd 1b31 c93e d8bb 22bd
00000120: 4c71 22bd 18ec 5abe 48a8 e33e 63a6 9d3d
00000130: 3bb7 b63d 0d42 f03e cb2a 023f 14f1 6e3e
00000140: 958e 3dbe 79a8 9b3d 6040 863e b134 8a3e
00000150: d472 a4be 915b fc3e 7030 e0bd fbc2 6bbd
00000160: d805 f73d 0e9c 4fbb c8b0 bcbe 39a7 2e3e
00000170: 195e 2c3e 9c84 8f3d bffd 2e3e 1ad8 f53e
00000180: 0c6c 3f3e dd86 c9be 5460 843e 90f2 32be
00000190: 21df 023f e444 213e 93b9 ba3c 6d7f 853e
000001a0: ac07 ae3d cb06 463e d731 893e 873e 803e
000001b0: 2a58 423e 84b5 6e3e 6500 1abd 184c 8fbe
000001c0: 44de 083f fc29 9b3e c871 c33e 4ec8 323e
000001d0: ae88 1d3e dd0d 593e ce30 a63e 1580 66be
000001e0: bbd6 7d3e 754a 6e3e 37a9 a2bd e24c 84be
000001f0: 9031 0a3e c5f3 1e3e 5f72 3cbb 433c bc3e

layer2.weight f4 [128, 128]
-0.14950521 0.0041291094 -0.010292005 -0.01950678 0.11045203 -0.031099807 -0.07341923 -0.03804889
-0.04006849 -0.04786905 0.30547127 0.10155715 0.10583326 -0.04193413 -0.055326443 0.04041164
-0.38192007 0.14045134 0.045007177 -0.1980899 0.095384285 -0.13154979 0.045849357 -0.0011831445
0.02819331 -0.06352268 -3.207255e-05 -0.16421193 0.07085217 0.057003118 -0.013182622 0.02637028
-0.005772209 -0.3609505 0.058378067 -0.16114742 -0.018384548 -0.043655355 0.08388675 0.057806913
0.009421005 0.074803285 0.06928123 -0.045946375 0.0982684 0.052610345 0.032241616 -0.14676416
-0.018297808 -0.040292837 0.006057843 0.0753505 0.024911117 -0.00013256395 0.03800323 0.15167096
0.15942712 0.06039751 0.092015564 -0.040520485 0.14399377 0.037542015 0.06399689 -0.01043053
0.007046687 0.018492363 0.08425575 -0.07962928 -0.20341763 -0.08837277 -0.26968107 0.02993571
0.02374231 -0.050412845 0.05824204 -0.17266789 -0.19459848 0.101307586 0.1060346 0.03189812
-0.083578676 0.034477927 -0.04562832 -0.24647506 -0.07133742 -0.03513214 -0.35388595 -0.06536666
0.224815 -0.15856576 -0.029460926 -0.061411183 0.20142452 -0.0612161 0.14816736 -0.032712813
-0.049796514 -0.034955747 0.2723327 -0.17975685 0.030193012 -0.015896924 0.05541316 0.0024268623
0.04262454 0.047962066 -0.60622287 -0.07209466 0.017250692 -0.021626469 -0.16862899 0.10417743
0.05562137 -0.10693033 -0.03702819 -0.21294825 -0.35665777 -0.13738352 0.016542608 0.09841267
-0.028750649 -0.035816744 -0.0244987 -0.120614484 0.09170748 0.04233001 0.081092946 0.0073453053
-0.024732256 -0.033490125 -0.014021602 0.04055308 -0.060946964 -0.021920256 -0.053206116 -0.07065967
-0.07561474 0.06336558 -0.057765108 -0.08866531 -0.05547449 0.011028129 -0.044655964 0.04430225
0.028168501 0.020220831 0.028780121 0.06398099 -0.04467417 -0.022145495 0.060280215 -0.03502354
0.05498353 -0.040411394 0.06398755 0.05264613 0.07753641 -0.044229507 0.075186335 -0.06823054
-0.029879145 -0.058433123 -0.08167801 0.0051178797 0.065949544 0.00749514 -0.023776656 0.03002528
-0.058587298 -0.014212168 0.054380476 0.0100268265 -0.07973563 -0.070464164 0.003502272 -0.020188306
0.06816502 0.07444888 0.054145224 0.019710565 -0.06425354 0.03357835 0.021693205 0.06884847
-0.05906047 -0.056019034 -0.02581678 -0.076003596 -0.034784578 0.019460924 0.05747343 0.058235206
0.059729315 -0.06992899 0.045848947 0.06952939 -0.019523371 0.044237733 -0.08487256 -0.063974634
-0.025159903 -0.019855915 -0.02387447 -0.041491378 -0.067007445 0.056496482 0.0036365245 0.06520475
-0.07446058 -0.04964011 0.038141232 -0.052935958 -0.08035123 -0.056998413 -0.044585764 -0.04677138
-0.063309774 -0.009535234 0.032581266 -0.045657434 0.022623582 -0.068538725 0.02611056 -0.021555573
0.0571974 -0.0024801719 -0.033711523 -0.06470757 0.00013466542 -0.08187622 0.05150055 -0.021734215
-0.035738423 -0.0042045442 0.047423884 -0.024579916 -0.043188095 0.013845436 0.0039150165 -0.016011951
0.02606045 -0.021373935 0.06660061 0.06534162 -0.086925596 -0.022642814 0.04664931 -0.04911993
0.06343687 0.004762937 0.012545938 -0.056491658 0.044973753 -0.06610184 -0.0011159573 -0.072679296
00000000: e517 19be 7b4d 873b cc9f 28bc afcc 9fbc
00000010: ad34 e23d 06c5 febc d25c 96bd 27d9 1bbd
00000020: db1e 24bd 5612 44bd bb66 9c3e 32fd cf3d
00000030: 1cbf d83d 1fc3 2bbd fb9d 62bd ad86 253d
00000040: 078b c3be 7ad2 0f3e 7259 383d 14d8 4abe
00000050: d658 c33d fdb4 06be 89cc 3b3d be13 9bba
00000060: a8f5 e63c 2e18 82bd a385 06b8 2c27 28be
00000070: f11a 913d 1a7c 693d edfb 57bc 7c06 d83c
00000080: cc24 bdbb 81ce b8be d71d 6f3d d403 25be
00000090: 319b 96bc f5cf 32bd d1cc ab3d f1c6 6c3d
000000a0: 8f5a 1a3c 7732 993d 51e3 8d3d 4432 3cbd
000000b0: f140 c93d f27d 573d c90f 043d 5849 16be
000000c0: 49e5 95bc 1a0a 25bd df80 c63b 5d51 9a3d
000000d0: 6612 cc3c dd00 0bb9 46a9 1b3d a24f 1b3e
000000e0: dd40 233e 6163 773d a872 bc3d cff8 25bd
000000f0: 1a73 133e a8c5 193d cd10 833d d0e4 2abc
00000100: e5e7 e63b 4c7d 973c 478e ac3d ad14 a3bd
00000110: b64c 50be c8fc b4bd a313 8abe bc3b f53c
00000120: 3c7f c23c b37d 4ebd 358f 6e3d dacf 30be
00000130: d344 47be 5a7a cf3d ab28 d93d 9aa7 023d
00000140: 4c2b abbd ba38 0d3d c3e4 3abd f563 7cbe
00000150: 5a19 92bd b8e6 0fbd 8a30 b5be f5de 85bd
00000160: e735 663e 105f 22be 0a58 f1bc 4b8a 7bbd
00000170: 3b42 4e3e bcbd 7abd 2fb9 173e dffd 05bd
00000180: 6ef7 4bbd c22d 0fbd 316f 8b3e 2e12 38be
00000190: 5657 f73c 443a 82bc e9f8 623d fe0b 1f3b
000001a0: 1297 2e3d df73 443d 6c31 1bbf 5da6 93bd
000001b0: 5351 8d3c fe29 b1bc 14ad 2cbe fa5a d53d
000001c0: 3cd3 633d 4afe dabd dfaa 17bd 1b0f 5abe
000001d0: d99b b6be 44ae 0cbe 5d84 873c 958c c93d
000001e0: 7b86 ebbc 94b4 12bd 7fb1 c8bc ba04 f7bd
000001f0: 22d1 bb3d 3c62 2d3d 0f14 a63d e3b0 f03b
00000200: 4d9b cabc f12c 09bd ddba 65bc fd1a 263d
00000210: 86a3 79bd 1c92 b3bc a8ee 59bd 04b6 90bd
00000220: e7db 9abd d0c5 813d 1b9b 6cbd 2896 b5bd
00000230: 3839 63bd 53af 343c 2ce9 36bd 4776 353d
00000240: a1c1 e63c 28a6 a53c 4ac4 eb3c 7708 833d
00000250: 43fc 36bd 786a b5bc 63e8 763d d874 0fbd
00000260: 6936 613d 6b86 25bd e80b 833d 78a3 573d
00000270: 69cb 9e3d 002a 35bd 4bfb 993d 74bc 8bbd
00000280: 1cc5 f4bc 9257 6fbd cd46 a7bd e3b3 a73b
00000290: 8e10 873d cb99 f53b 43c7 c2bc 93f7 f53c
000002a0: 3cf9 6fbd 27da 68bc 10be 5e3d 8f47 243c
000002b0: 6f4c a3bd 844f 90bd 6086 653b f261 a5bc
000002c0: 1a9a 8b3d a878 983d 62c7 5d3d 0d78 a13c
000002d0: 5c97 83bd 7489 093d f3b5 b13c 6d00 8d3d
000002e0: 64e9 71bd 3774 65bd b67d d3bc c6a7 9bbd
000002f0: 467a 0ebd 846c 9f3c 4269 6b3d 0a88 6e3d
00000300: baa6 743d ee36 8fbd 1bcc 3b3d 6d65 8e3d
00000310: 7aef 9fbc a032 353d aad1 adbd 2205 83bd
00000320: 241c cebc dfa8 a2bc 6494 c3bc ddf2 29bd
00000330: 333b 89bd db68 673d c252 6e3b 118a 853d
00000340: ca7e 98bd 6e53 4bbd fb39 1c3d 60d3 58bd
00000350: 308f a4bd 2b77 69bd 909f 36bd 5993 3fbd
00000360: 8ea8 81bd ac39 1cbc ef73 053d 4a03 3bbd
00000370: 1755 b93c 085e 8cbd d0e5 d53c 5095 b0bc
00000380: d247 6a3d 618a 22bb 1815 0abd 6785 84bd
00000390: f934 0d39 b8ae a7bd 3ef2 523d f40b b2bc
000003a0: 7462 12bd 46c6 89bb 8c3f 423d d25b c9bc
000003b0: 00e6 30bd f8d7 623c 8a49 803b 7f2b 83bc
000003c0: ba7c d53c 6418 afbc e765 883d d4d1 853d
000003d0: 0c06 b2bd 6c7d b9bc 5913 3f3d fb31 49bd
000003e0: 31eb 813d 6912 9c3b 7a8d 4d3c cc63 67bd
000003f0: 6636 383d 6760 87bd 5045 92ba e2d8 94bd

layer2.bias f4 [128]
0.0110850725 -0.018331334 0.11608815 -0.0015969235 0.047355372 0.20699328 0.28203285 0.033764727
0.09562616 -0.03746086 0.013427165 -0.0059322487 -0.07209413 0.267453 0.02792148 0.040659957
-0.017650332 0.17824991 -0.11723963 0.19123963 0.20693704 0.035695806 0.011202836 0.2235049
-0.020537168 0.24542038 -0.04803465 -0.088909954 0.014208875 0.25497383 0.054562543 0.2801839
0.22941436 0.117251106 0.20962642 0.22410685 0.19259252 0.12334092 -0.07470511 0.15111282
0.21006884 0.009444911 0.2868755 -0.16967405 0.25162998 0.18065286 0.21838778 -0.0821218
-0.07962972 -0.05059163 -0.012855708 0.013895099 0.19528063 0.11963588 -0.039833013 -0.024603043
0.01623012 -0.00096928526 0.25469047 0.024076452 -0.0026950515 -0.007319029 0.00574778 0.197981
0.089663014 0.088487975 -0.011235399 0.26706722 0.14703274 -0.04856233 0.12160455 -0.0953311
0.11278523 -0.023305815 0.026061762 0.05465331 0.15626009 0.06857167 0.033578366 -0.056850467
-0.06689388 -0.009418557 0.008427448 0.18508688 -0.040751547 0.13629867 -0.001263954 0.25235215
-0.001188481 -0.11919345 -0.015395759 -0.18816285 -0.038158067 0.039656173 0.053252183 -0.06556297
0.1931343 0.0043555843 0.05124885 0.25526947 -0.149494 -0.04967121 0.23465137 0.017155245
0.21458425 -0.008745231 0.01659393 -0.1370969 0.23594597 -0.13021025 0.06449057 0.018264623
0.15090413 0.18125936 0.2122998 0.15333204 0.1612645 0.18126197 -0.060258396 -0.01844552
-0.036816515 -0.007004325 0.24120273 -0.07241689 -0.018362029 -0.103490226 0.05155095 -0.0030695873
00000000: 2a9e 353c 982b 96bc a0bf ed3d dc4f d1ba
00000010: b5f7 413d 0cf6 533e 9c66 903e e24c 0a3d
00000020: a6d7 c33d 8f70 19bd 9dfd 5b3c 4f63 c2bb
00000030: 16a6 93bd 9aef 883e 96bb e43c 0e8b 263d
00000040: 6e97 90bc 2587 363e 551b f0bd 52d4 433e
00000050: 4ee7 533e c435 123d 1a8c 373c 78de 643e
00000060: 903d a8bc 7b4f 7b3e fbbf 44bd 6c16 b6bd
00000070: 57cc 683c ee8b 823e f97c 5f3d 4474 8f3e
00000080: 99eb 6a3e 5921 f03d 4fa8 563e 447c 653e
00000090: f936 453e 2a9a fc3d fefe 98bd 52bd 1a3e
000000a0: 491c 573e d4be 1a3c 58e1 923e 09bf 2dbe
000000b0: a5d5 803e 10fd 383e 0ca1 5f3e 792f a8bd
000000c0: e814 a3bd 2b39 4fbd bfa0 52bc 45a8 633c
000000d0: a5f7 473e a803 f53d f127 23bd 528c c9bc
000000e0: 07f5 843c a217 7eba ca66 823e fb3b c53c
000000f0: 769f 30bb 77d4 efbb e057 bc3b 88bb 4a3e
00000100: 3ea1 b73d 2f39 b53d ae14 38bc 09bd 883e
00000110: c08f 163e 4be9 46bd ce0b f93d f43c c3bd
00000120: f1fb e63d d6eb bebc 7a7f d53c 26dc 5f3d
00000130: a502 203e 4e6f 8c3d 7889 093d 09dc 68bd
00000140: a9ff 88bd 4b50 1abc 4713 0a3c 6a87 3d3e
00000150: 18eb 26bd e191 0b3e 42ab a5ba 4d34 813e
00000160: cec6 9bba b21b f4bd 7e3e 7cbc c3ad 40be
00000170: a24b 1cbd 836e 223d f61e 5a3d e145 86bd
00000180: ffc4 453e 4ab9 8e3b 50ea 513d aeb2 823e
00000190: f514 19be 0a74 4bbd 7348 703e 2889 8c3c
000001a0: f9bb 5b3e 2848 0fbc feef 873c 2163 0cbe
000001b0: d29b 713e d655 05be a213 843d b19f 953c
000001c0: 9d86 1a3e 0e9c 393e 1e65 593e 1303 1d3e
000001d0: 8522 253e bd9c 393e 82d1 76bd 0f1b 97bc
000001e0: eacc 16bd 8984 e5bb d9fd 763e 4e4f 94bd
000001f0: f76b 96bc aff2 d3bd 1727 533d 212b 49bb

layer3.weight f4 [10, 128]
0.13399436 0.044976767 0.070721984 0.06513499 0.004669195 -0.055001 0.20740396 5.6921246e-05
0.13723989 -0.11535225 0.0027057778 0.055868953 -0.043466687 0.13843033 0.043109085 0.13552493
-0.060401928 0.048649367 -0.1035907 0.19879355 0.092487074 -0.052911755 0.048759967 0.13013892
0.015671564 0.112751134 -0.057865545 -0.028917711 0.08673237 0.13781591 0.06096578 0.16716552
0.07235549 0.07063698 0.22302547 0.08974938 0.118868016 0.103907526 -0.079062685 0.08536592
0.22112909 -0.13864592 0.0833912 -0.16722754 0.05657817 0.13829896 0.05238915 -0.0389521
-0.17464226 -0.07046528 0.18595493 -0.19783668 0.17271431 0.17933998 -0.047113974 -0.038929168
-0.107661225 0.040728092 0.19812684 0.10676577 -0.10373041 -0.10824405 0.0037040235 0.09829877
-0.020519711 0.1818428 -0.026460722 0.0818948 0.04707646 -0.034392018 0.07794865 -0.15998332
0.080123216 -0.06186382 -0.08223448 -0.04082663 0.1621625 0.13747704 -0.04999139 -0.102565035
0.045083642 -0.21740797 0.016314624 0.12496198 0.15513824 0.20151924 0.04849292 0.058989484
-0.14264499 0.053034864 0.016190192 -0.11906954 0.08707764 -0.06575432 -0.18991335 -0.33987924
0.09282507 -0.097041026 -0.18746942 0.117290154 -0.06901569 0.06968903 0.1808849 0.050997388
0.19977878 0.05097749 0.030623108 -0.054785553 0.13415997 -0.104035966 0.010724172 0.07407108
0.13931054 0.029068457 0.17313978 0.12334114 0.13426171 0.064089835 -0.29320613 -0.12657584
0.031665992 0.18636216 0.11236535 -0.08089976 -0.087934606 -0.11070676 -0.06388583 0.03998121
0.07103774 -0.06478362 0.076327965 0.056268662 0.06993903 0.058525234 0.101361014 0.20566465
0.12905902 0.19161725 -0.001024309 0.27147487 -0.024352357 0.06488131 0.07413901 0.075610295
-0.010289192 0.13294998 -0.16240071 0.07285208 0.04704672 0.08661831 -0.022295281 0.15983477
0.0128777325 0.0945359 -0.010724343 -0.09604253 0.14887726 0.14800346 0.22195737 0.09047883
0.086793415 0.10538102 0.14995839 0.11568691 0.08232665 0.044434574 0.07881792 0.18078525
0.19092672 0.11192472 0.11490334 -0.06678023 0.18825811 0.18268527 0.17176788 -0.010651819
0.052511517 0.10248619 -0.07498375 -0.26075745 0.06209881 0.13229907 -0.17635939 -0.049031056
-0.021946723 0.19670612 0.16066666 0.11940659 -0.2021594 -0.061806656 -0.09707751 0.024510654
-0.10372097 -0.046717208 0.03673006 0.17341158 0.13220423 0.1097145 0.06170769 -0.19752671
0.20113312 -0.008697255 -0.007450112 -0.026362881 0.086266674 0.17922033 -0.08378256 0.018993039
-0.0786151 -0.13413052 -0.05673764 0.06524895 0.24917679 0.034089357 0.040753186 0.18149255
0.09913381 -0.1477048 -0.07281937 0.17154132 -0.007583714 -0.05436521 0.095315084 0.084692925
0.100136146 -0.10948508 0.09172874 0.059856992 0.037499487 0.021161683 0.06463348 0.20289248
0.1672599 0.0017321341 -0.1949917 0.121963404 0.12588593 -0.03190783 0.014931384 0.17799757
0.12875682 0.16938645 0.10259501 0.04000636 0.06474882 0.10164403 -0.34544536 -0.056945093
0.1898317 -0.013859747 0.18605103 -0.0706622 0.087573834 -0.17653081 0.059729222 0.108774446
00000000: d135 093e 8f39 383d b0d6 903d 7e65 853d
00000010: 0c00 993b bb48 61bd b461 543e b9be 6e38
00000020: 9d88 0c3e cd3d ecbd 6b53 313b d8d6 643d
00000030: 200a 32bd aec0 0d3e 2793 303d 0cc7 0a3e
00000040: 0368 77bd 8f44 473d 5c27 d4bd 8990 4b3e
00000050: dd69 bd3d ffb9 58bd 88b8 473d 2343 053e
00000060: a761 803c 11ea e63d 6c04 6dbd d6e4 ecbc
00000070: bea0 b13d 9d1f 0d3e 41b7 793d 702d 2b3e
00000080: 1d2f 943d 1faa 903d ca60 643e 86ce b73d
00000090: 1371 f33d 78cd d43d 9eeb a1bd 54d4 ae3d
000000a0: aa6f 623e 32f9 0dbe 01c9 aa3d b23d 2bbe
000000b0: 83be 673d 3e9e 0d3e 0196 563d 3d8c 1fbd
000000c0: 6cd5 32be 1a50 90bd f86a 3e3e b395 4abe
000000d0: 05dc 303e e6a4 373e 95fa 40bd 3174 1fbd
000000e0: 7d7d dcbd 80d2 263d c3e1 4a3e 03a8 da3d
000000f0: 9c70 d4bd 0eaf ddbd 34bf 723b de50 c93d
00000100: f418 a8bc 0035 3a3e 28c4 d8bc 76b8 a73d
00000110: 3fd3 403d a5de 0cbd 8ba3 9f3d abd2 23be
00000120: a417 a43d eb64 7dbd 8d6a a8bd d339 27bd
00000130: ed0d 263e c8c6 0c3e c6c3 4cbd 9e0d d2bd
00000140: a0a9 383d 32a0 5ebe 3fa6 853c 11ec ff3d
00000150: 8fdc 1e3e 0f5b 4e3e 83a0 463d f59e 713d
00000160: 8711 12be 163b 593d 4ba1 843c bbda f3bd
00000170: c355 b23d 33aa 86bd a578 42be a704 aebe
00000180: 121b be3d 72bd c6bd fcf7 3fbe d235 f03d
00000190: 1958 8dbd 1fb9 8e3d e439 393e a3e2 503d
000001a0: cf92 4c3e c6cd 503d 50dd fa3c d166 60bd
000001b0: 3b61 093e cf10 d5bd 70b4 2f3c 94b2 973d
000001c0: 6ca7 0e3e f920 ee3c 8e4b 313e 489a fc3d
000001d0: e77b 093e 8841 833d 1d1f 96be 199d 01be
000001e0: 33b4 013d b9d5 3e3e ce1f e63d c6ae a5bd
000001f0: 0f17 b4bd 3aba e2bd 93d6 82bd 56c3 233d
00000200: 3c7c 913d 46ad 84bd d651 9c3d f879 663d
00000210: 323c 8f3d 28b8 6f3d 5d96 cf3d c199 523e
00000220: 0c28 043e 5037 443e 1b42 86ba c1fe 8a3e
00000230: 987e c7bc 7ee0 843d 31d6 973d 92d9 9a3d
00000240: 0094 28bc 0a24 083e 5f4c 26be 7933 953d
00000250: 10b4 403d f164 b13d 98a4 b6bc baab 233e
00000260: 20fd 523c 0a9c c13d 28b5 2fbc f2b1 c4bd
00000270: 4873 183e 388e 173e cb48 633e f74c b93d
00000280: bfc0 b13d 01d2 d73d b18e 193e 42ed ec3d
00000290: e09a a83d 0701 363d 4a6b a13d c51f 393e
000002a0: 4b82 433e ca38 e53d 7152 eb3d 13c4 88bd
000002b0: bcc6 403e d911 3b3e ebe3 2f3e f884 2ebc
000002c0: 5116 573d 48e4 d13d 1591 99bd 0082 85be
000002d0: 525b 7e3d 6879 073e 8e97 34be cad4 48bd
000002e0: 9dc9 b3bc 546d 493e cd85 243e 718b f43d
000002f0: e002 4fbe fa28 7dbd 93d0 c6bd 91ca c83c
00000300: a96b d4bd 8b5a 3fbd 4272 163d ce92 313e
00000310: 8c60 073e ffb1 e03d 34c1 7c3d 7144 4abe
00000320: d7f5 4d3e ee7e 0ebc 1220 f4bb f8f6 d7bc
00000330: 95ac b03d 8985 373e 3196 abbd 4a97 9b3c
00000340: f400 a1bd 8359 09be ba65 68bd 3ea1 853d
00000350: 3328 7f3e 48a1 0b3d d0ec 263d 2fd9 393e
00000360: ab06 cb3d ed3f 17be 5222 95bd 87a8 2f3e
00000370: ce80 f8bb 0eae 5ebd 8e34 c33d 7c73 ad3d
00000380: 2e14 cd3d b739 e0bd 47dc bb3d 9b2c 753d
00000390: 1099 193d 445b ad3c 8f5e 843d 0cc3 4f3e
000003a0: 2e46 2b3e c708 e33a e7ab 47be f3c7 f93d
000003b0: 3ee8 003e c9b1 02bd c3a2 743c ff44 363e
000003c0: d4d8 033e a473 2d3e 551d d23d b5dd 233d
000003d0: 089b 843d bf2a d03d 37de b0be 423f 69bd
000003e0: 3e63 423e fe13 63bc 2984 3e3e 58b7 90bd
000003f0: e959 b33d 7ec4 34be a1a6 743d 23c5 de3d

layer3.bias f4 [10]
0.11146472 0.16954581 -0.011420035 0.12352968 0.07467761 0.2171652 0.08668319 0.13363148
0.14498994 0.17918019
00000000: 9d47 e43d 6b9d 2d3e 191b 3bbc 21fd fc3d
00000010: 93f0 983d 8e60 5e3e f586 b13d b1d6 083e
00000020: 3e78 143e 037b 373e
